simple_log_reg_state.pt (torch, 160671 bytes, 4 tensors)

layers.0.weight f4 [50, 784]
-0.033506185 0.06835903 -0.052473925 0.05838346 -0.026106168 -0.046444688 0.020229548 0.034174338
-0.017171092 0.06534188 -0.082868 0.072525576 -0.076187745 0.029426286 0.026611341 0.014509509
-0.06308839 0.06322941 -0.047485523 -0.06908353 0.0098242825 0.07587898 0.042723246 0.047085296
-0.03648001 0.05601305 -0.0671608 -0.019349763 -0.01918037 0.044453826 0.011931619 -0.056451134
0.028646274 0.06745413 -0.03222147 0.072076194 0.028841991 -0.06709089 0.079335295 0.03031902
-0.06821686 -0.041476212 -0.05014513 0.072371826 0.012073626 -0.07008648 -0.0040196027 -0.064099476
0.030271968 0.055513356 -0.011981391 -0.06103468 0.06839121 -0.036355164 0.012938957 -0.040096845
-0.060974736 0.067819916 0.057013497 0.051068846 0.065757856 0.073325835 0.016508978 0.008677378
-0.05582284 -0.030239863 0.054223195 -0.0065071457 0.08119982 0.03598463 0.06501198 0.02739832
-0.044361122 -0.020705098 0.06438306 0.0077153565 -0.030637499 0.043226942 -0.044441793 -0.017036645
-0.08553963 0.02576911 0.027778864 0.01952503 0.044244647 0.071078815 0.05227365 0.016707817
0.02501576 -0.07575073 -0.07702784 0.04636344 -0.00046898983 -0.07191092 -0.016148597 0.037059586
0.046342637 0.000650282 -0.01400405 -0.11941078 -0.1193054 -0.058826413 -0.07435185 -0.011118287
0.08462867 0.055873644 0.03588736 -0.00030619753 0.07826122 -0.058657836 0.0658732 0.069503754
0.009583959 -0.06810016 -0.023405524 0.081617706 0.027582677 0.051566556 0.052133307 0.007547526
-0.024188353 -0.08429851 0.035941962 -0.018648472 -0.004245304 -0.008358673 -0.030074466 0.012325536
-0.00014708619 -0.03137585 -0.115476474 -0.059177063 0.0724777 -0.0234499 0.045241397 -0.01983104
0.05306911 -0.022211934 0.076871775 -0.07723842 0.045124695 -0.055247266 0.0109448405 0.052741215
0.0002778698 -0.01848945 -0.0065866946 -0.07224396 -0.010152032 0.025343569 -0.113732085 0.06822816
-0.03311857 -0.055702608 -0.0021866364 -0.08870116 0.024746923 -0.001534841 0.07505767 0.042128406
0.042178776 0.058626592 -0.044627115 -0.03364246 0.057269998 -0.012865632 -0.08303237 0.06983815
0.047791697 -0.06393825 0.04865323 0.017336156 -0.029289508 -0.085944116 -0.11373849 -0.012815949
-0.037686974 0.0011650308 -0.11789757 -0.025313722 0.07440832 -0.0031038125 0.036147118 0.11258205
0.026985252 -0.0142999645 -0.0035855572 0.08223263 0.044104096 0.015861014 0.09849684 0.011741464
0.07812009 -0.06928121 0.032802846 -0.07016893 -0.03851743 0.058110107 0.011940996 0.020161025
-0.009027377 -0.010088825 -0.15593922 -0.136296 -0.07515983 -0.097339734 -0.055632535 0.04263365
0.05575152 0.015685478 0.107896574 0.07056449 -0.0078495 -0.013482702 -0.03959134 0.016123742
0.012023515 0.06570256 0.016076317 0.024302011 0.1152524 0.06265946 0.020975003 0.06417246
-0.07332424 0.06765707 0.09654626 0.0021771744 -0.11546681 -0.10350589 -0.106478974 0.014670988
0.015744412 -0.012063748 0.029486863 -0.060679965 0.011561326 0.015076113 -0.0001248071 -0.036811914
0.04782909 -0.019086579 -0.04513969 -0.10324978 -0.013243646 0.05652134 -0.026853293 0.046152603
0.10723866 0.06439216 -0.07010254 0.04863703 -0.006161341 -0.070963405 -0.028577695 -0.032326553
00000000: c83d 09bd d2ff 8b3d e6ee 56bd 7f23 6f3d
00000010: 9adc d5bc c93c 3ebd 70b8 a53c 64fa 0b3d
00000020: 64aa 8cbc f7d1 853d b3b6 a9bd 4a88 943d
00000030: 5208 9cbd 650f f13c 0700 da3c 4bb9 6d3c
00000040: 7c34 81bd 6c7e 813d 2e80 42bd aa7b 8dbd
00000050: 07f6 203c 7066 9b3d 92fe 2e3d 83dc 403d
00000060: 106c 15bd f16d 653d 9a8b 89bd 6583 9ebc
00000070: 2720 9dbc 3715 363d d67c 433c 4e39 67bd
00000080: 97ab ea3c 6425 8a3d a9fa 03bd af9c 933d
00000090: 0a46 ec3c f366 89bd 8b7a a23d 985f f83c
000000a0: 48b5 8bbd f6e2 29bd fb64 4dbd ae37 943d
000000b0: 75d0 453c 8089 8fbd dfb6 83bb 9646 83bd
000000c0: ebfc f73c f961 633d 994d 44bc 80ff 79bd
000000d0: b110 8c3d 27e9 14bd ebfd 533c 973c 24bd
000000e0: a5c0 79bd 2be5 8a3d fc86 693d 912d 513d
000000f0: 0eac 863d db2b 963d d63d 873c 902b 0e3c
00000100: 7ea6 64bd 97b9 f7bc 2419 5e3d e539 d5bb
00000110: 174c a63d 9f64 133d 0025 853d 7172 e03c
00000120: 02b4 35bd bd9d a9bc 44db 833d 1ad1 fc3b
00000130: 7efb fabc bc0e 313d 9908 36bd 6f90 8bbc
00000140: 672f afbd be19 d33c 8090 e33c f5f2 9f3c
00000150: e039 353d c591 913d e51c 563d d5de 883c
00000160: daed cc3c 3323 9bbd c6c0 9dbd 97e7 3d3d
00000170: c0e2 f5b9 0846 93bd 104a 84bc cbcb 173d
00000180: c7d1 3d3d b077 2a3a 3e71 65bc a48d f4bd
00000190: 6456 f4bd f7f3 70bd c845 98bd 7a29 36bc
000001a0: cc51 ad3d c3db 643d a0fe 123d 2389 a0b9
000001b0: 6b47 a03d 3343 70bd 87e8 863d fc57 8e3d
000001c0: 0a06 1d3c 1978 8bbd f1bc bfbc 2f27 a73d
000001d0: 11f5 e13c 7437 533d bc89 553d 3d51 f73b
000001e0: a726 c6bc b2a4 acbd e137 133d aec4 98bc
000001f0: 311c 8bbb d1f2 08bc ba5e f6bc 0cf1 493c
00000200: 263b 1ab9 f783 00bd ee7e ecbd a663 72bd
00000210: 306f 943d 011a c0bc 0b4f 393d b574 a2bc
00000220: ff5e 593d cdf5 b5bc f36e 9d3d 2d2f 9ebd
00000230: acd4 383d f54a 62bd fd51 333c 2c07 583d
00000240: 0eaf 9139 3077 97bc 33d5 d7bb a4f4 93bd
00000250: b554 26bc 519d cf3c 5eec e8bd 35bb 8b3d
00000260: 56a7 07bd 6b28 64bd ac4d 0fbb f4a8 b5bd
00000270: 0fba ca3c b82c c9ba d6b7 993d d68e 2c3d
00000280: a7c3 2c3d 7022 703d ecca 36bd adcc 09bd
00000290: f293 6a3d 5fca 52bc e00c aabd 4e07 8f3d
000002a0: 3ac1 433d 0ff2 82bd 9c48 473d 8e04 8e3c
000002b0: 8df0 efbc 7803 b0bd baef e8bd fcf9 51bc
000002c0: a85d 1abd f2b3 983a 4874 f1bd b95e cfbc
000002d0: 6463 983d 5569 4bbb 000f 143d 6b91 e63d
000002e0: 2d10 dd3c 664a 6abc abfb 6abb 9569 a83d
000002f0: 7fa6 343d f5ee 813c b6b8 c93d 455f 403c
00000300: 6dfd 9f3d 4fe3 8dbd 475c 063d bab4 8fbd
00000310: 74c4 1dbd dd04 6e3d 2ba4 433c bc28 a53c
00000320: 90e7 13bc 994b 25bc 88ae 1fbe 2e91 0bbe
00000330: 66ed 99bd 0e5a c7bd f1de 63bd 9fa0 2e3d
00000340: b55b 643d d57e 803c e1f8 dc3d 1e84 903d
00000350: 309b 00bc 8de6 5cbc 872a 22bd f015 843c
00000360: 47fe 443c 108f 863d 7bb2 833c 0315 c73c
00000370: 7309 ec3d 9a53 803d c5d3 ab3c da6c 833d
00000380: 052b 96bd ca8f 8a3d 0cba c53d edae 0e3b
00000390: dd79 ecbd e5fa d3bd a611 dabd 955e 703c
000003a0: 6dfa 803c 07a7 45bc 6f8e f13c 8e8b 78bd
000003b0: b76b 3d3c cd01 773c a7de 02b9 17c8 16bd
000003c0: 70e8 433d 755b 9cbc 65e4 38bd 9f74 d3bd
000003d0: e1fb 58bc ec82 673d 70fb dbbc 830a 3d3d
000003e0: f19f db3d 09e0 833d ec91 8fbd 9f37 473d
000003f0: 13e5 c9bb 4355 91bd c51b eabc d968 04bd

layers.0.bias f4 [50]
-0.12336959 -0.13781539 -0.15219276 -0.14793435 -0.110645816 -0.1144282 -0.1274055 -0.09141385
-0.14189166 -0.11264734 -0.14418301 -0.1074432 -0.13239515 -0.12864971 -0.13258633 -0.17424665
-0.124423504 -0.14005451 -0.0894339 -0.092589736 -0.107015535 -0.1633041 -0.12601846 -0.13240105
-0.134067 -0.12672538 -0.13218082 -0.15231284 -0.121643834 -0.09684164 -0.117881514 -0.122200035
-0.12995937 -0.14306192 -0.117026776 -0.13219775 -0.1399371 -0.12402734 -0.122096226 -0.11852777
-0.1258941 -0.1443342 -0.09662652 -0.12937921 -0.1124227 -0.13934757 -0.11427258 -0.11215112
-0.0978039 -0.11090439
00000000: 32a9 fcbd 7a1f 0dbe 6bd8 1bbe 1a7c 17be
00000010: 469a e2bd 5559 eabd 9676 02be 2f37 bbbd
00000020: 0c4c 11be a6b3 e6bd b6a4 13be 2e0b dcbd
00000030: 9892 07be c0bc 03be b6c4 07be b76d 32be
00000040: c0d1 febd 736a 0fbe 1f29 b7bd b09f bdbd
00000050: f62a dbbd 3139 27be fc0a 01be 2494 07be
00000060: dc48 09be 4cc4 01be 695a 07be e6f7 1bbe
00000070: 6720 f9bd e954 c6bd dd6b f1bd 0344 fabd
00000080: 1214 05be d37e 12be bcab efbd d95e 07be
00000090: ac4b 0fbe 0c02 febd 960d fabd b0be f2bd
000000a0: 62ea 00be 58cc 13be 20e4 c5bd fc7b 04be
000000b0: df3d e6bd 21b1 0ebe be07 eabd 7daf e5bd
000000c0: 694d c8bd d721 e3bd

layers.1.weight f4 [10, 50]
-0.22924808 0.45878953 0.65046066 -0.21529932 0.33740163 0.29897296 -0.5352629 0.21838596
0.17939334 0.05561242 -0.10075672 0.092272535 -0.038086973 -0.39271966 0.23532915 0.80170953
0.45971578 -0.06769359 0.41792184 -0.1631273 0.3107077 0.7233333 0.2039985 0.03893763
0.452247 -0.42577788 -0.44359717 0.5959945 -3.9504343e-05 0.41466215 0.1575263 -0.2519009
0.67281777 -0.09704655 -0.08233703 0.6691273 -0.17522 -0.5030719 -0.06610828 0.029516377
0.14395969 -0.23527339 -0.305023 -0.38037798 -0.50922984 0.08564856 -0.4870702 0.1658934
0.10696614 -0.6142001 0.21963468 0.06668513 0.28719747 0.44748718 -0.30002972 -0.682332
0.39435568 -0.5526279 0.3007228 -0.12673979 0.14072554 -0.30268818 0.19396962 0.24124907
0.49106923 0.8890956 -0.09505887 0.08321451 -0.22550437 -0.5529025 -0.39494023 0.737538
-0.20225959 -0.18490481 -0.38593337 -0.02903174 0.072352104 0.12967485 -0.22131328 -0.3301835
-0.15050171 -0.14640364 -0.6501705 0.6031548 -0.5355378 -0.1433275 -0.16437057 0.6776567
-0.2090466 -0.355856 0.60325974 -0.08171981 0.2343172 -0.3001371 -0.20676978 0.19665478
0.54708296 -0.31966266 0.38608325 0.20848665 -0.06374209 -0.52691996 0.48386225 0.7166009
0.6452222 -0.27572918 -0.013732183 -0.33011624 -0.15305579 -0.071858145 -0.21463074 -0.3318589
0.7958712 -0.5913347 0.025108466 -0.23113896 -0.5729437 -0.26004973 -0.5487996 0.0031990136
0.12669852 0.20364511 -0.4262767 0.32961452 0.793129 -0.9221137 -0.25122166 0.18881062
0.43647972 -0.77304083 0.283113 0.02127111 0.1797916 0.09469066 -0.09155516 0.66442466
0.07098795 0.8397749 0.060902394 0.7093904 -0.362213 -0.25993067 0.76092243 -0.117633425
0.5550899 -0.13975377 -0.56956214 -0.17120484 -0.4848047 -0.4984784 -0.5711783 0.7056695
0.7110225 0.18162683 0.19043425 -0.4278708 -0.14864224 -0.72102946 -0.14353825 -0.2727272
0.63960004 0.31605616 -0.53688383 -0.309203 -0.20206906 0.1694757 0.6290105 0.3591727
0.72681004 0.007814299 -0.5674502 0.018800857 -0.24634472 0.41183317 -0.21615015 0.3947738
-0.44174126 0.13777062 0.46316838 -0.65514183 0.5334741 0.36856204 0.3886278 0.1222464
-0.2255719 -0.59328294 -0.10304721 0.6754809 -0.7543882 0.030537846 -0.011299086 -0.47558722
-0.2461745 0.47334465 0.9434601 -0.053362142 0.22934043 0.4445061 -0.016699007 -0.030662782
-0.16379349 0.24387355 0.06094057 0.8123236 -0.35711586 0.47757748 -0.20034555 -0.6552513
0.40493098 0.22304747 0.0287006 -0.5403255 0.42602476 0.79467213 0.33954543 0.44849995
0.2799418 -0.15320951 -0.9109133 -0.4600656 0.4929354 0.22355708 -0.08539758 0.46218213
-0.13412547 0.5715089 0.08270857 0.6006351 0.34488824 -0.31174514 -0.19955812 0.6279949
-0.13676034 0.45222884 0.0644306 0.22565559 0.00024226756 -0.5890459 0.0064328 -0.66481864
-0.49842665 0.7266216 -0.57749546 0.76440036 -0.23551883 0.3154842 0.34574106 -0.21236587
-0.7190554 0.24967912 0.28866336 0.12175728 -0.69855636 0.6550603 0.103139035 -0.23943575
00000000: 02c0 6abe 76e6 ea3e 9784 263f 6d77 5cbe
00000010: e8bf ac3e fc12 993e fd06 09bf 92a0 5f3e
00000020: e3b2 373e d9c9 633d 8a59 cebd 62f9 bc3d
00000030: 1601 1cbd 8d12 c9be 20fa 703e d63c 4d3f
00000040: de5f eb3e f0a2 8abd daf9 d53e d80a 27be
00000050: 1415 9f3e 5f2c 393f fce4 503e 107d 1f3d
00000060: eb8c e73e 8fff d9be 2b1f e3be 1893 183f
00000070: 77b1 25b8 994e d43e 934e 213e 28f9 80be
00000080: c93d 2c3f 57c0 c6bd 51a0 a8bd ed4b 2b3f
00000090: df6c 33be 52c9 00bf c763 87bd 54cc f13c
000000a0: 2b6a 133e 82eb 70be fa2b 9cbe e7c0 c2be
000000b0: e35c 02bf 8368 af3d 4461 f9be f6df 293e
000000c0: 1011 db3d 383c 1dbf eae7 603e 3792 883d
000000d0: 8c0b 933e 0a1d e53e 7f9d 99be 4fad 2ebf
000000e0: fde8 c93e 0679 0dbf 57f8 993e 13c8 01be
000000f0: 5b1a 103e f2f9 9abe f99f 463e ff09 773e
00000100: 6d6d fb3e c59b 633f 3aae c2bd 5e6c aa3d
00000110: 9eea 66be 058b 0dbf 9b35 cabe 4acf 3c3f
00000120: 231d 4fbe b057 3dbe 0f99 c5be f9d3 edbc
00000130: 572d 943d 7cc9 043e f39f 62be d00d a9be
00000140: 1f1d 1abe d6ea 15be 9371 26bf 5a68 1a3f
00000150: 0119 09bf 72c4 12be c250 28be e97a 2d3f
00000160: 5010 56be c232 b6be 3b6f 1a3f b75c a7bd
00000170: d9f0 6f3e 92ab 99be 75bb 53be df5f 493e
00000180: a10d 0c3f d3aa a3be b4ac c53e 867d 553e
00000190: 368b 82bd 3ae4 06bf cbbc f73e 2873 373f
000001a0: 482d 253f 602c 8dbe f3fc 60bc ff04 a9be
000001b0: a8ba 1cbe 5d2a 93bd 29c8 5bbe 69e9 a9be
000001c0: 37be 4b3f b661 17bf 45b0 cd3c b1af 6cbe
000001d0: 70ac 12bf 3d25 85be 217e 0cbf 8ba6 513b
000001e0: 42bd 013e 5888 503e f140 dabe 3cc3 a83e
000001f0: 810a 4b3f a50f 6cbf 20a0 80be 9257 413e
00000200: 457a df3e 01e6 45bf 30f4 903e c040 ae3c
00000210: 4a1b 383e 2ded c13d 4681 bbbd bc17 2a3f
00000220: 2162 913d 7dfb 563f ca74 793d 9c9a 353f
00000230: fb73 b9be a215 85be d0cb 423f cbe9 f0bd
00000240: 5f1a 0e3f 9d1b 0fbe d3ce 11bf 5250 2fbe
00000250: 5238 f8be 9038 ffbe be38 12bf c2a6 343f
00000260: 9205 363f 62fc 393e 3201 433e e211 dbbe
00000270: ac35 18be 6395 38bf b1fb 12be e6a2 8bbe
00000280: d4bc 233f 1dd2 a13e 3871 09bf db4f 9ebe
00000290: 31eb 4ebe 0a8b 2d3e d506 213f 7ce5 b73e
000002a0: 3910 3a3f 8c07 003c 6b44 11bf 4104 9a3c
000002b0: ca41 7cbe ccdb d23e 7756 5dbe cb1f ca3e
000002c0: e92b e2be be13 0d3e 6824 ed3e 60b7 27bf
000002d0: c291 083f 2ab4 bc3e 39fa c63e 525c fa3d
000002e0: 52fc 66be 64e1 17bf 6a0a d3bd 51ec 2c3f
000002f0: 961f 41bf 812a fa3c cd1f 39bc 2b80 f3be
00000300: 2b15 7cbe 3b5a f23e 9a86 713f 4392 5abd
00000310: 38d8 6a3e 4e96 e33e 5bcc 88bc 8430 fbbc
00000320: 7bb9 27be fdb9 793e d29c 793d 70f4 4f3f
00000330: e4d7 b6be 0985 f43e 6227 4dbe 8dbe 27bf
00000340: 1d53 cf3e 8e66 643e 851d eb3c c652 0abf
00000350: eb1f da3e a26f 4b3f e6d8 ad3e c9a1 e53e
00000360: 8854 8f3e f4e2 1cbe 9d31 69bf b88d ebbe
00000370: 0762 fc3e 26ec 643e ede4 aebd 23a3 ec3e
00000380: 3058 09be 684e 123f 1c63 a93d 39c3 193f
00000390: 3195 b03e 0f9d 9fbe f758 4cbe 46c4 203f
000003a0: e70a 0cbe 8a8a e73e 31f4 833d 4212 673e
000003b0: 3409 7e39 b6cb 16bf 3dca d23b 8e31 2abf
000003c0: c731 ffbe e003 3a3f bed6 13bf beaf 433f
000003d0: d92b 71be 2587 a13e f904 b13e 7076 59be
000003e0: 0414 38bf e2ab 7f3e afcb 933e e15b f93d
000003f0: 97d4 32bf 08b2 273f 8f3a d33d a52e 75be

layers.1.bias f4 [10]
-0.04368527 -0.049688883 -0.031464703 -0.023100352 -0.04082182 -0.029006543 -0.03750763 -0.02885267
-0.030004304 -0.03957422
00000000: 53ef 32bd 9286 4bbd 22e1 00bd f33c bdbc
00000010: c834 27bd 219f edbc 9aa1 19bd 6f5c ecbc
00000020: 96cb f5bc 9418 22bd
